.config/google-chrome-beta/Default/optimization_guide_prediction_model_downloads/17b27dc1-4fe0-4cec-b5c8-eb7482f14b63/model.tflite (tflite, 7592 bytes, 3 tensors)

prediction_model/logits/MatMul f4 [1, 64]
0.19052209 0.10226855 0.030470325 -0.027701244 0.06238489 -0.028533055 -0.023019465 -0.15448162
-0.08102034 -0.0929138 0.06680633 -0.23451202 -0.03498127 -0.028411148 -0.11441317 0.033531945
-0.021322416 0.0694163 -0.11405146 -0.020035777 0.17979775 0.21912245 -0.022378722 0.19784826
0.2110276 0.13752308 -0.058004167 -0.14008242 -0.15549353 0.13581638 -0.1610316 -0.034856115
0.030100804 0.05301551 0.013549651 -0.057582542 0.02697134 -0.058993418 0.036564 0.31520438
-0.07908931 0.057805423 -0.14995308 0.025398623 0.022398226 -0.047287025 -0.059558105 -0.12700148
-0.028867472 0.010291961 -0.13681288 -0.096129835 -0.012331792 -0.14102486 0.05974476 -0.059387945
0.2441279 -0.05272562 0.0858761 0.045840397 -0.017460342 -0.025470695 0.03700293 0.15337971
00000000: 3918 433e 2c72 d13d e79c f93c b8ed e2bc
00000010: 4c87 7f3d 27be e9bc 5193 bcbc 6e30 1ebe
00000020: feed a5bd 9749 bebd c2d1 883d eb23 70be
00000030: 8548 0fbd 7fbe e8bc 7451 eabd cb58 093d
00000040: 59ac aebc 222a 8e3d d093 e9bd 1222 a4bc
00000050: e71c 383e a361 603e 9553 b7bc bc98 4a3e
00000060: 9f17 583e dad2 0c3e c795 6dbd c471 0fbe
00000070: b239 1fbe 7313 0b3e 78e5 24be 49c5 0ebd
00000080: f695 f63c cb26 593d 5bff 5d3c acdb 6bbd
00000090: 00f3 dc3c 15a3 71bd 22c4 153d 7862 a13e
000000a0: 93f9 a1bd 61c5 6c3d 4d8d 19be c610 d03c
000000b0: 7c7c b73c 0ab0 41bd 33f3 73bd ad0c 02be
000000c0: 7a7b ecbc 9d9f 283c ad18 0cbe b8df c4bd
000000d0: 490b 4abc d268 10be ecb6 743d c640 73bd
000000e0: aafc 793e d2f6 57bd cfdf af3d 24c3 3b3d
000000f0: fe08 8fbc eba7 d0bc 6290 173d 920f 1d3e

prediction_model/dense_3/BiasAdd/ReadVariableOp f4 [64]
-0.103530385 -0.26032618 -0.13530403 -0.6355475 -0.34375778 -0.5307742 -0.19680016 -0.63556165
-0.40240103 -0.12986444 -0.45679948 -0.06126704 -0.6025229 -0.9160754 -0.02643349 -0.22918008
-0.52444154 -0.42201456 0.0 -0.54057086 -0.33915237 -0.48503163 -0.5845145 -0.18924326
-0.32358178 -0.45265183 -0.563969 -0.24734579 -0.13213442 -0.43580532 -0.4510701 -0.35138708
0.038008068 -0.076618865 -0.029273696 -0.85086656 -0.45252898 0.12794894 -0.4459121 0.21958011
-0.058188356 -0.1496137 0.11164027 -0.19665286 -0.07812549 -0.23633574 -0.18996313 0.2881024
-0.55506146 -0.35835943 -0.21997245 -0.22972123 -0.3269623 -0.1633681 -0.26457804 -0.1813213
0.074501194 -0.7564695 -0.059091195 -0.28850785 -0.1815231 -0.8067366 0.039130196 -0.5476937
00000000: bd07 d4bd 7949 85be 248d 0abe 3eb3 22bf
00000010: 0501 b0be d1e0 07bf fb85 49be 2bb4 22bf
00000020: 8207 cebe 2ffb 04be 9fe1 e9be 26f3 7abd
00000030: f13e 1abf eb83 6abf 0c8b d8bc 2fae 6abe
00000040: cd41 06bf 4b12 d8be 0000 0000 da62 0abf
00000050: 61a5 adbe 1156 f8be bea2 15bf fcc8 41be
00000060: 83ac a5be fbc1 e7be 4660 10bf 3748 7dbe
00000070: 3f4e 07be e021 dfbe a9f2 e6be 02e9 b3be
00000080: 59ae 1b3d 5aea 9cbd 64cf efbc 64d2 59bf
00000090: e1b1 e7be 0c05 033e 974e e4be 9cd9 603e
000000a0: ea56 6ebd 5534 19be a7a3 e43d 5e5f 49be
000000b0: 4200 a0bd ff01 72be b285 42be 2882 933e
000000c0: 8218 0ebf e37a b7be 7540 61be 0b3c 6bbe
000000d0: 9a67 a7be f849 27be c676 87be 4aac 39be
000000e0: 1594 983d fca7 41bf 9c09 72bd 4db7 93be
000000f0: 31e1 39be 4a86 4ebf fc46 203d a835 0cbf

prediction_model/dense_3/MatMul i1 [64, 22] scale=0.049050365 zero_point=0
3.8259284 0.2943022 0.0 -1.7167628 0.09810073 0.0 0.1471511 -0.44145328
-0.2943022 -0.1471511 0.0 -0.2943022 0.2943022 0.0 0.09810073 -1.3734102
-0.49050364 -1.2753094 -0.78480583 0.049050365 -1.079108 0.09810073 -0.09810073 0.0
-0.44145328 0.39240292 0.44145328 0.09810073 0.1471511 -0.049050365 0.1471511 0.19620146
0.19620146 0.34335256 -0.049050365 -0.5886044 0.1471511 0.09810073 -0.1471511 0.44145328
0.09810073 -0.539554 0.39240292 -0.49050364 -0.2943022 -0.1471511 -0.049050365 0.09810073
0.1471511 -0.09810073 0.049050365 0.1471511 -0.1471511 0.09810073 0.1471511 0.1471511
-0.24525182 -0.24525182 -0.1471511 0.19620146 -0.19620146 0.09810073 -0.2943022 -0.2943022
0.09810073 0.1471511 -1.4224606 -2.0601153 0.049050365 -0.09810073 -0.049050365 0.049050365
0.0 0.09810073 0.24525182 -0.2943022 -1.079108 0.34335256 -0.34335256 0.0
0.2943022 -1.0300577 0.0 -0.73575544 0.49050364 -0.1471511 -1.9620146 0.34335256
2.3544176 -0.1471511 -0.049050365 3.3844752 1.3734102 0.09810073 0.1471511 -0.24525182
-0.09810073 0.0 -1.618662 0.73575544 -0.2943022 0.0 0.0 1.7658131
0.0 0.44145328 0.049050365 -0.44145328 -0.049050365 0.24525182 -1.8639139 -2.011065
0.0 -0.39240292 -0.5886044 -0.049050365 0.19620146 -0.24525182 0.0 -0.19620146
-0.78480583 0.19620146 -0.19620146 0.09810073 0.73575544 -1.7167628 0.0 -0.44145328
0.44145328 -0.19620146 -2.158216 0.24525182 -0.34335256 -0.19620146 -0.049050365 0.1471511
0.1471511 -0.049050365 -0.1471511 0.09810073 -0.1471511 -0.049050365 0.0 0.09810073
0.1471511 -0.049050365 0.0 -0.2943022 0.0 -0.2943022 -0.44145328 -0.24525182
0.0 -0.39240292 0.2943022 0.049050365 0.09810073 2.7958708 -0.49050364 -0.9810073
-1.1281583 1.1772088 0.8338562 -1.2262591 1.7167628 1.8639139 -1.1281583 -0.09810073
-0.539554 -3.5806766 0.0 -0.88290656 0.44145328 -0.09810073 -1.0300577 0.09810073
1.618662 0.2943022 -0.24525182 -0.9810073 0.6867051 -0.09810073 0.2943022 0.19620146
0.6376547 0.24525182 -0.6867051 -1.2753094 -0.24525182 -0.049050365 -0.539554 -2.69777
-0.049050365 -1.4224606 1.3243599 0.24525182 -0.5886044 -0.09810073 -3.335425 0.049050365
-0.24525182 -3.0411227 -0.44145328 -0.78480583 -0.24525182 -0.5886044 0.2943022 -0.5886044
0.2943022 0.539554 0.24525182 0.049050365 0.6376547 0.5886044 -0.049050365 0.8338562
-0.1471511 0.34335256 -0.1471511 0.049050365 3.3844752 0.0 0.09810073 3.1882737
1.8148634 -0.049050365 0.2943022 -0.78480583 0.39240292 -0.049050365 0.34335256 0.88290656
-0.049050365 -0.049050365 0.09810073 1.618662 -0.09810073 0.24525182 0.049050365 -0.1471511
-0.1471511 -0.09810073 0.19620146 -0.19620146 -0.049050365 -0.09810073 0.049050365 -0.24525182
-0.09810073 -0.09810073 -0.1471511 0.0 -0.24525182 0.1471511 -0.1471511 -0.1471511
00000000: 4e06 00dd 0200 03f7 fafd 00fa 0600 02e4
00000010: f6e6 f001 ea02 fe00 f708 0902 03ff 0304
00000020: 0407 fff4 0302 fd09 02f5 08f6 fafd ff02
00000030: 03fe 0103 fd02 0303 fbfb fd04 fc02 fafa
00000040: 0203 e3d6 01fe ff01 0002 05fa ea07 f900
00000050: 06eb 00f1 0afd d807 30fd ff45 1c02 03fb
00000060: fe00 df0f fa00 0024 0009 01f7 ff05 dad7
00000070: 00f8 f4ff 04fb 00fc f004 fc02 0fdd 00f7
00000080: 09fc d405 f9fc ff03 03ff fd02 fdff 0002
00000090: 03ff 00fa 00fa f7fb 00f8 0601 0239 f6ec
000000a0: e918 11e7 2326 e9fe f5b7 00ee 09fe eb02
000000b0: 2106 fbec 0efe 0604 0d05 f2e6 fbff f5c9
000000c0: ffe3 1b05 f4fe bc01 fbc2 f7f0 fbf4 06f4
000000d0: 060b 0501 0d0c ff11 fd07 fd01 4500 0241
000000e0: 25ff 06f0 08ff 0712 ffff 0221 fe05 01fd
000000f0: fdfe 04fc fffe 01fb fefe fd00 fb03 fdfd
